…
i":"https://localhost:8080/"},"id":"xxflq7JcsKYB","executionInfo":{"status":"ok","timestamp":1701361593973,"user_tz":-540,"elapsed":698,"user":{"displayName":"김상협","userId":"12043790812417297914"}},"outputId":"6adb2951-8fe5-4368-e3f8-62755224c57e"},"execution_count":null,"outputs":[{"output_type":"stream","name":"stdout","text":["Model: \"sequential_47\"\n","_________________________________________________________________\n"," Layer (type)                Output Shape              Param #   \n","=================================================================\n"," gru_44 (GRU)                (None, 5, 50)             7950      \n","                                                                 \n"," dropout_36 (Dropout)        (None, 5, 50)             0         \n","                                                                 \n"," gru_45 (GRU)                (None, 5, 50)             15300     \n","                                                                 \n"," dropout_37 (Dropout)        (None, 5, 50)             0         \n","                                                                 \n"," gru_46 (GRU)                (None, 5, 50)             15300     \n","                                                                 \n"," dropout_38 (Dropout)        (None, 5, 50)             0         \n","                                                                 \n"," gru_47 (GRU)                (None, 50)                15300     \n","                                                                 \n"," dropout_39 (Dropout)        (None, 50)                0         \n","                                                                 \n"," dense_47 (Dense)            (None, 1)                 51        \n","                                                                 \n","=================================================================\n","Total params: 53901 (210.55 KB)\n","Trainable params: 53901 (210.55 KB)\n","Non-trainable params: 0 (0.00 Byte)\n","_________________________________________________________________\n"]}]}],"metadata":{"kernelspec":{"display_name":"Python 3","lang
…
